noise/model/netG_epoch_40.pth (torch, 857491 bytes, 23 tensors)

module.transform_layer.weight f4 [1600, 100]
0	0x3e8f73bd	0.2801799
1	0x3c4f49b9	0.012651854
2	0x3cc29d0f	0.023756532
3	0x3d34cefd	0.044142712
4	0xbe08a6c1	-0.13344862
5	0xbdc3ca8c	-0.09560117
6	0x3cc6cf1c	0.02426868
7	0xbcadfefd	-0.021239752
8	0xbc5b1932	-0.013372706
9	0xbd4a613d	-0.04940914
10	0xbd9c3557	-0.07627361
11	0x3da45054	0.08023134
12	0x3cb6e85d	0.022327596
13	0x3de15e88	0.110043585
14	0xbdbbee8d	-0.09176359
15	0xbe0f270c	-0.13979739
16	0xbda61da7	-0.081111245
17	0x3d63dcfc	0.05563067
18	0x3dfa8f2b	0.122343384
19	0xbdd57055	-0.10421816
20	0xbc922d5f	-0.0178439
21	0x3d6e7c0e	0.058223777
22	0xbb97b45d	-0.0046296553
23	0xbdc81156	-0.097689316
24	0x3e358d28	0.17729628
25	0x3dda928b	0.10672482
26	0xbc1d4e2d	-0.009601158
27	0x3ca7985f	0.020458398
28	0x3d8999d4	0.067187935
29	0x3e69b5d7	0.22823273
30	0xbd8361d7	-0.06415146
31	0x3dbc6689	0.091992445
32	0x3c09e13f	0.008415519
33	0xbdcf289b	-0.10115167
34	0xbdd4ab6c	-0.10384259
35	0x3cafdfcd	0.021469021
36	0xbd01a729	-0.031653557
37	0xbdf23aba	-0.118276075
38	0x3e0ad10e	0.1355631
39	0xbc0f605c	-0.008751001
40	0x3d0c5dcc	0.03426914
41	0x3e894c33	0.26815948
42	0xbdd9d287	-0.10635858
43	0x3daa28ec	0.083085865
44	0xbdbe92eb	-0.09305366
45	0x3d60f4f5	0.05492111
46	0x3e0db6ff	0.13839339
47	0x3ce6d555	0.028177897
48	0x3c9da521	0.019243779
49	0xbd33015c	-0.04370247
50	0x3c462ed7	0.012096128
51	0x3d8de427	0.06928282
52	0xbdd6d2dc	-0.10489437
53	0x3d056014	0.03256233
54	0xbce9f7bd	-0.028560514
55	0x3e42d9b3	0.19028358
56	0xbd841f53	-0.06451287
57	0x3d6909a4	0.05689396
58	0xbddc604c	-0.10760555
59	0xbca91e42	-0.02064431
60	0x3dcc417a	0.09973426
61	0xbcaa3832	-0.02077875
62	0x3d74b848	0.059746057
63	0xbd70cfa5	-0.058791775
64	0x3bf2591f	0.007395878
65	0xbdd48a62	-0.10377957
66	0x3e00c015	0.12573273
67	0xbe23758b	-0.15962808
68	0x3ddb2ffe	0.10702513
69	0x3d5c990b	0.05385689
70	0x3e390b87	0.18070804
71	0xbdfd7a0e	-0.12376796
72	0xbdbe7a9e	-0.09300731
73	0xbdb31e73	-0.08746042
74	0x3c6867a0	0.014184862
75	0xbe04507c	-0.12921327
76	0x3cb044d0	0.021517187
77	0xbe203b00	-0.15647507
78	0xbe217fd6	-0.15771422
79	0x3d129a52	0.035791703
80	0x3cdc8fc8	0.026924029
81	0xbd652115	-0.055939753
82	0xbd9db30f	-0.07700168
83	0xbd8b4e9b	-0.06802102
84	0xbb62e92a	-0.003462384
85	0xbc4c390a	-0.012464771
86	0x3c332e8d	0.010936392
87	0xbc9f81b5	-0.019471029
88	0x3dd99f0d	0.1062604
89	0x3e455f2d	0.19274588
90	0xbda11983	-0.07866194
91	0x3cbe9430	0.02326402
92	0xbd4e2e06	-0.05033686
93	0x3d28fddd	0.041257728
94	0x3e744685	0.23855026
95	0x3e0868dd	0.13321252
96	0xbe5acb39	-0.21366586
97	0x3d04aa8b	0.032389205
98	0xbc45708b	-0.012050758
99	0xbdcca68c	-0.09992704
100	0xbdd85de2	-0.10564782
101	0x3c87e882	0.01659036
102	0x3b03bebb	0.0020102698
103	0x3e8adffa	0.27124006
104	0xbbbdb2dd	-0.0057891444
105	0x3dcdbfd0	0.10046351
106	0x3a86881d	0.0010263954
107	0xbd0a6589	-0.033788238
108	0xbd47255f	-0.048619624
109	0xbc9bc7a6	-0.019016098
110	0xbb961ede	-0.0045813164
111	0xbd499a38	-0.04921934
112	0x3d0a4468	0.033756644
113	0xbe4e5be1	-0.20152237
114	0xbc9cbfb0	-0.019134372
115	0xbb357c0a	-0.0027692341
116	0xbd56f736	-0.052481852
117	0xbd268884	-0.040657535
118	0x3cdf088f	0.02722576
119	0x3daad287	0.08340936
120	0xbd3152cb	-0.04329185
121	0xbca5e8cf	-0.020252613
122	0x3de0de04	0.10979846
123	0x3e3975b7	0.18111311
124	0x3d6dacac	0.058026
125	0x3d7d7012	0.061874457
126	0x3de6e588	0.11274248
127	0xba187aaa	-0.0005816618
128	0x3d5f132e	0.05446165
129	0xbe5cc5a2	-0.21559766
130	0x3d74ff38	0.059813708
131	0xbe0c8d37	-0.13725744
132	0x3d2c4657	0.04205927
133	0xbdd40202	-0.103519455
134	0x3d2e0173	0.04248185
135	0xbd763fc2	-0.060119398
136	0x3d083ab2	0.0332591
137	0xbe1585e7	-0.14601861
138	0x3d54a078	0.051910847
139	0x3d833c50	0.06407988
140	0xbc0793b5	-0.008274962
141	0x3d4eb622	0.050466664
142	0xbdf65510	-0.12027943
143	0x3e04d51e	0.12971923
144	0xbd9561fd	-0.072940804
145	0x3e568f7f	0.20953177
146	0x3dc2944b	0.09500941
147	0x3e6525c6	0.2237769
148	0xbd1f551c	-0.038899526
149	0xbcceb13a	-0.025230993
150	0x3df32fd7	0.11874359
151	0x3d655aab	0.05599467
152	0xbdcda6eb	-0.10041603
153	0x3e691c76	0.22764763
154	0x3cf89988	0.030346647
155	0x3d898521	0.067148454
156	0xbdcd5c7b	-0.10027405
157	0x3da3d1e9	0.079990216
158	0xbc901cef	-0.017591922
159	0x3e772c00	0.24137878
160	0x3e1a82ba	0.1508893
161	0xbb8bca6c	-0.004266074
162	0x3e1345de	0.14382121
163	0xbe486b93	-0.19572286
164	0xbde32ee8	-0.11092931
165	0x3d8b55bb	0.06803461
166	0x3d8bf4de	0.06833814
167	0xbd5f3696	-0.054495417
168	0x3d15eb84	0.03660156
169	0xbddc37ad	-0.10752807
170	0xbe0b213a	-0.13586894
171	0xbd1ea33c	-0.03872989
172	0x3dfc11b4	0.12308064
173	0x3e16766b	0.1469361
174	0x3dc03544	0.093851596
175	0x3dfc3289	0.12314326
176	0xbb9bebac	-0.004758319
177	0xbe160a7d	-0.14652438
178	0xbcbbe351	-0.022935541
179	0xbd72a2cc	-0.059237286
180	0xbd7c34de	-0.061573856
181	0xbd9f5971	-0.077807315
182	0xbde100f6	-0.109865114
183	0x3ce772d5	0.028252998
184	0xbdcea147	-0.10089355
185	0xbdacc49f	-0.0843594
186	0x3d10c6cb	0.035345834
187	0xbdc5bbb4	-0.09654942
188	0x3c5c5b43	0.013449493
189	0x3c281c9c	0.010260727
190	0xbc96f926	-0.01842935
191	0x3e3e52b0	0.1858623
192	0xbd708595	-0.058721144
193	0xbd539c60	-0.051662803
194	0x3cb859ce	0.02250376
195	0x3c84df9f	0.016219912
196	0xbdcb6189	-0.09930713
197	0xbc27558c	-0.010213267
198	0x3c9a48fc	0.01883363
199	0x3d75afe6	0.059982203
200	0x3d72383c	0.05913566
201	0x3d9b2009	0.075744696
202	0xbcfca388	-0.030839697
203	0x3dad5d16	0.0846502
204	0xbdaacebd	-0.083402134
205	0x3ca9642a	0.020677645
206	0x3dca683e	0.09883164
207	0x3bcf64b5	0.006329144
208	0xbbbbf9fb	-0.005736587
209	0xbd4d876f	-0.050177988
210	0xbcc2bf29	-0.023772793
211	0xbe0304bb	-0.12794773
212	0xbdc94ff7	-0.09829705
213	0x3d069596	0.0328575
214	0x3c6669a4	0.014063273
215	0xbd69d515	-0.057087976
216	0x3d902a59	0.07039327
217	0x3e4fa769	0.20278706
218	0x3e1770fe	0.14789197
219	0xbe13e736	-0.14443669
220	0x3e15c2d2	0.146251
221	0x3ce88ef0	0.02838847
222	0x3b34b20c	0.0027571945
223	0x3c050622	0.008119138
224	0x3e21f033	0.15814285
225	0x3d9caf4a	0.07650621
226	0x3d2dcced	0.04243176
227	0xbe3f88c2	-0.18704513
228	0xbcbb8f37	-0.022895439
229	0xbe34f66b	-0.17672126
230	0x3ce89517	0.028391404
231	0x3ce5e87a	0.028064955
232	0xbdf6561f	-0.12028145
233	0xbd1420dd	-0.036164153
234	0x3d2be4a7	0.041966107
235	0xbcca495d	-0.024693185
236	0xbc205fce	-0.009788467
237	0x3cbaca39	0.022801505
238	0xbdb4bbb0	-0.08824861
239	0x3d1de4c3	0.038548242
240	0xbd17b437	-0.0370371
241	0xbe21300d	-0.15740986
242	0x3de2c41a	0.1107256
243	0xbdc40cd8	-0.09572762
244	0xbdd10e45	-0.102078
245	0x3c3aa914	0.01139285
246	0x3e8302cb	0.25588068
247	0x3e331d3c	0.17491621
248	0x3d955b15	0.07292763
249	0xbe0e9a68	-0.13926089
250	0xbe04fe27	-0.12987576
251	0xbda6cba8	-0.08144313
252	0x3de5e1a1	0.11224676
253	0x3c317370	0.010830745
254	0x3d2d76fd	0.042349804
255	0x3d0f6269	0.03500596

module.transform_layer.bias f4 [1600]
0	0x3dcc95d4	0.09989515
1	0x3dd64e8f	0.104642026
2	0x3c7d96e9	0.015477874
3	0xbdfac6fd	-0.12244985
4	0xbe3964ac	-0.1810481
5	0xbdd623d2	-0.10456051
6	0xbdf65b72	-0.120291606
7	0xbe20bb60	-0.15696478
8	0xbde332e5	-0.11093692
9	0xbd9287ad	-0.07154784
10	0x3dcc8cf6	0.09987824
11	0x3e14fcb1	0.14549519
12	0x3e28ae71	0.16472794
13	0x3e1b2f34	0.15154725
14	0x3cd585cb	0.026064774
15	0x3d8c82ef	0.06860911
16	0xbda500a5	-0.080567636
17	0xbdab823d	-0.0837445
18	0xba822d17	-0.0009931651
19	0x3d223931	0.039605323
20	0x3d13e3eb	0.03610603
21	0x3df8e7b7	0.12153571
22	0x3e004071	0.12524582
23	0x3dac03a9	0.083991356
24	0xbd1d32ed	-0.038378645
25	0x3be57b78	0.007003244
26	0xbcdbecae	-0.026846256
27	0xbe273cc4	-0.16331774
28	0xbd375e73	-0.04476781
29	0xbd829da6	-0.06377725
30	0xb8bd80df	-9.0362264e-05
31	0xbd9db445	-0.07700399
32	0xbd1978f2	-0.037468858
33	0x3dbcd2dc	0.09219906
34	0x3d062650	0.03275138
35	0xbdbf822d	-0.09351001
36	0x3cbf033d	0.023316974
37	0xbd5bbf04	-0.053648964
38	0xbcf229b7	-0.029560907
39	0xbd3a9cfd	-0.045559872
40	0x3e041d9a	0.12901917
41	0xbd3e33db	-0.046436172
42	0x3d991520	0.074747324
43	0x3ca012dd	0.019540245
44	0x3dd0ea97	0.102009945
45	0x3d1a8d3e	0.037732355
46	0xbd92c8b4	-0.07167187
47	0xbc0a6040	-0.008445799
48	0x3d915c2b	0.07097658
49	0xbcf26dbd	-0.029593343
50	0xbd73d7b5	-0.059531886
51	0xbe49640d	-0.19667073
52	0xbdba1309	-0.09085662
53	0xbd9670c5	-0.07345728
54	0x3d9fe997	0.078082256
55	0x3dd96f19	0.10616893
56	0xbd89c2de	-0.06726621
57	0xbcd03ebc	-0.02542054
58	0xbd8d2c6c	-0.068932384
59	0xb9f1ee76	-0.0004614477
60	0x3d8fa4cb	0.07013854
61	0x3e5195dd	0.20467325
62	0x3e9285bc	0.28617656
63	0x3ddcbe35	0.107784666
64	0x3e50e29b	0.20398943
65	0xbdc49c90	-0.096001744
66	0x3d75a641	0.059973005
67	0xbde9d2c9	-0.11417157
68	0x3d11b7f0	0.035575807
69	0xbd99ee16	-0.075161144
70	0xbc968477	-0.018373711
71	0xbdcea735	-0.10090486
72	0xbcd4f632	-0.025996301
73	0xbe1afa8d	-0.1513464
74	0xbdf542bc	-0.11975619
75	0x3e185135	0.14874728
76	0xbd523da4	-0.051328316
77	0xbe433aac	-0.1906535
78	0xbd770ee9	-0.060316954
79	0x3cd1ffa9	0.025634604
80	0x3cbb67b6	0.022876602
81	0x3dd0bd7f	0.101923935
82	0x3e0e4922	0.13895085
83	0x3dfee9ed	0.124469616
84	0xbc6ec6e9	-0.014573791
85	0x3cc44ed4	0.02396337
86	0xbdb51d85	-0.08843521
87	0xbd8b4b02	-0.06801416
88	0xbe167fff	-0.14697264
89	0x3da17e99	0.07885475
90	0x3d3cebc2	0.046123274
91	0x3ddac57c	0.106821984
92	0x3d956029	0.07293732
93	0x3dc61c71	0.096733935
94	0x3e3d4c52	0.18486145
95	0x3dc7baf3	0.097524546
96	0x3dda9929	0.10673744
97	0x3debe40b	0.11518105
98	0x3e0176ca	0.1264297
99	0xbbb00b14	-0.0053724144
100	0x3ddb9385	0.107214965
101	0x3db458fa	0.088060334
102	0xbe016c5f	-0.12638997
103	0xbccb1e88	-0.024794832
104	0x3dc92b2b	0.09822687
105	0x3dc4a132	0.09601058
106	0xbd0ff6c7	-0.035147455
107	0xbe253a02	-0.1613541
108	0xbdb667a1	-0.089064844
109	0xbd0f7571	-0.03502411
110	0xbd5611a3	-0.052262913
111	0xbd008426	-0.031376027
112	0x39dcf092	0.0004214091
113	0x3cc20897	0.023685737
114	0x3dbd3e51	0.092404015
115	0xbda5fa95	-0.08104435
116	0xbe107c6d	-0.14109965
117	0x3d21b2cc	0.039477155
118	0xbcc97c09	-0.024595277
119	0xbd959a39	-0.07304806
120	0x3ca6a922	0.02034432
121	0x3d8a12c1	0.06741858
122	0x3d76d3fb	0.060260754
123	0x3dd89ced	0.10576806
124	0x3da720da	0.08160563
125	0xbe29ae50	-0.16570401
126	0xbc43b328	-0.01194457
127	0xbd855701	-0.06510735
128	0x3d1fa26d	0.03897326
129	0x3d33bf49	0.043883596
130	0x3c8fe586	0.0175655
131	0xbad3b76a	-0.0016152684
132	0xbcafa3c9	-0.021440404
133	0xbd8cca51	-0.06874526
134	0xbdf662da	-0.12030573
135	0x3d280099	0.041016195
136	0x3dd933a7	0.10605555
137	0x3e247585	0.16060455
138	0x3e109d5d	0.1412253
139	0x3e0fd8c9	0.1404754
140	0x3e0200f5	0.12695678
141	0xbdb7202b	-0.089416824
142	0x3cfd0675	0.030886868
143	0xbcf3ef23	-0.029777115
144	0xbe1d15dd	-0.15340371
145	0xbe2f3bd1	-0.17112662
146	0xbd507b1f	-0.050898667
147	0xbdca39de	-0.098743185
148	0xbd9e94ef	-0.077432506
149	0xbe2554c1	-0.16145612
150	0xbd4b427d	-0.049623955
151	0xbc38ea9a	-0.011286402
152	0xbc9feaef	-0.019521205
153	0xbd2f45f9	-0.04279134
154	0xbdecf388	-0.115698874
155	0x3cd90bbb	0.026494851
156	0xbc0bbd12	-0.008528965
157	0xbc2523ea	-0.010079363
158	0xbd8c27b7	-0.068435125
159	0xbd855f4c	-0.06512317
160	0xbbe802b4	-0.0070804004
161	0xbd22ebec	-0.039775774
162	0xbda8a384	-0.08234313
163	0xbd97030e	-0.073736295
164	0x3d8e74cf	0.06955873
165	0x3d967337	0.07346194
166	0x3db480db	0.0881364
167	0x3c836978	0.016041502
168	0xbcfd045a	-0.030885864
169	0x3d5435e6	0.051809214
170	0x3df44e70	0.11929023
171	0x3d22f6a9	0.039786015
172	0xbd73c32d	-0.059512306
173	0x3c81f6c2	0.015864734
174	0x3bd6080c	0.006531721
175	0xbdf9315b	-0.12167617
176	0x3d3c005e	0.045898788
177	0x3e2f1532	0.17097929
178	0xbc10556c	-0.008809429
179	0x3d1f6f2b	0.038924377
180	0x3c1be4c4	0.009514991
181	0x3ba17599	0.004927349
182	0x3c0e5f73	0.008689749
183	0x3ddde1e8	0.10834104
184	0x3dccef54	0.10006586
185	0xbd0b9601	-0.0340786
186	0x3c86bdf6	0.016448002
187	0x3e01c1d3	0.12671594
188	0xba2a2add	-0.00064913725
189	0x3dbd89ae	0.09254776
190	0x3c14273a	0.0090425555
191	0x3d1fb658	0.038992256
192	0x3d808368	0.06275064
193	0x3def76d2	0.11692585
194	0xbd96fa49	-0.07371957
195	0xbd6a31f3	-0.05717654
196	0xbddc7ade	-0.107656226
197	0xbde15c49	-0.1100393
198	0xbe55e2d4	-0.2088731
199	0xbdeb900d	-0.11502085
200	0x3d6d1e3b	0.05789016
201	0x3d92b833	0.071640395
202	0x3e5af91d	0.21384092
203	0x3e2bad04	0.16765219
204	0x3e060cfc	0.1309089
205	0x3bb50ee9	0.005525459
206	0xba6e73bf	-0.0009096227
207	0xbe60ea74	-0.21964437
208	0xbd88fafa	-0.06688495
209	0x3d8a5b8f	0.06755745
210	0xbc5e354e	-0.0135625135
211	0xbc85ce93	-0.016333854
212	0xbd48723a	-0.04893706
213	0xbbfaa7f8	-0.007649418
214	0x3cc99925	0.024609158
215	0xbd6ba2e4	-0.05752839
216	0xbe615f58	-0.22009027
217	0xbe3692f8	-0.17829502
218	0xb73f0296	-1.1385089e-05
219	0xbb30492a	-0.0026899078
220	0xbd462400	-0.048374176
221	0xbc88de43	-0.016707545
222	0xbd7ad654	-0.061239555
223	0xbda9524e	-0.082676515
224	0x3da567bf	0.080764286
225	0x3e236279	0.15955533
226	0x3d8d732f	0.06906735
227	0x3d66c9ee	0.05634492
228	0x3d98264d	0.0742918
229	0x3e16497b	0.14676468
230	0x3bb68957	0.0055705714
231	0xbe03c0f6	-0.12866578
232	0xbdc7e88c	-0.09761152
233	0xbdd830a2	-0.10556151
234	0xbe3ff269	-0.18744816
235	0xbdeac6fb	-0.11463734
236	0xbccc2861	-0.024921598
237	0xbdc19756	-0.09452693
238	0xbd06a137	-0.03286859
239	0x3d99c8ff	0.0750904
240	0x3cf7ec74	0.030264117
241	0xbd66fe77	-0.05639502
242	0x3d34a5b1	0.04410333
243	0x3d621715	0.055197794
244	0xbd8d9134	-0.06912461
245	0x3d15af7d	0.03654431
246	0x3dddc233	0.10828056
247	0x3dec85b3	0.115489386
248	0x3dda55a5	0.10660867
249	0x3d8dba19	0.06920261
250	0xbdfe43ba	-0.124152616
251	0x3d64434a	0.055728234
252	0x3d169a67	0.036768343
253	0xbb8587f4	-0.0040750448
254	0xbd66cee3	-0.056349646
255	0x3cc55481	0.024088146

module.blocks.0.block.1.weight f4 [64, 64, 3]
0	0x3cf71551	0.030161532
1	0x3d05f4cf	0.03270417
2	0x3d3b5826	0.04573836
3	0xbc0d5835	-0.008626987
4	0xbd378d95	-0.044812758
5	0xbcf3c98e	-0.029759195
6	0x3b8434fa	0.0040346356
7	0xbcf9bfc3	-0.030486947
8	0xbd087fc7	-0.033324983
9	0xbafbd075	-0.0019211905
10	0xbb81d545	-0.0039621913
11	0xbba01615	-0.004885445
12	0x3d2a59e9	0.04158965
13	0x3ce85b63	0.02836389
14	0x3bb2d3a7	0.00545736
15	0xbcd360e0	-0.02580303
16	0xbd411e8f	-0.047148284
17	0x3acfb896	0.0015847858
18	0xbc8afe78	-0.016967043
19	0x3b9efccd	0.0048519135
20	0xb9b7b79e	-0.00035041285
21	0xbc0bc001	-0.008529664
22	0xbc8a7288	-0.016900316
23	0xbc8ee2e1	-0.017442169
24	0x3acdc3c8	0.0015698606
25	0x3ceb4a27	0.028721882
26	0x3d3abe78	0.0455918
27	0x3c4b120f	0.012394442
28	0x3b3a6fc5	0.0028447967
29	0x3cb65ca4	0.022260971
30	0x3b680e4c	0.0035408912
31	0xbc0dcf41	-0.00865537
32	0xbae90572	-0.0017778112
33	0x3c1b1f60	0.00946793
34	0x3aaea9d6	0.0013325762
35	0x3c539546	0.0129140075
36	0xbbc5f966	-0.0060416935
37	0xbca6c110	-0.020355731
38	0x3bdea489	0.0067945165
39	0x3cffcab3	0.031224584
40	0x3d4f4246	0.050600313
41	0x3ca5d2b3	0.02024207
42	0xbd0b1915	-0.033959467
43	0xbd6b957a	-0.0575156
44	0xbc5585c2	-0.013032379
45	0xbd60d016	-0.054885946
46	0xbdcc985e	-0.09989999
47	0xbcb09400	-0.021554947
48	0xbc93e733	-0.01805458
49	0xbd9a5b0f	-0.07536899
50	0xbd1b2281	-0.037874702
51	0xbacf8100	-0.0015831292
52	0xbc88452d	-0.016634548
53	0x3c567340	0.013089001
54	0x3d1fdde0	0.039029956
55	0x3cf870d6	0.030327242
56	0x3cad9732	0.02119026
57	0x3bb5263e	0.0055282405
58	0xbc90ff7a	-0.017699946
59	0xbce9de49	-0.028548377
60	0x3cccf8f0	0.025021046
61	0x3cf239bd	0.029568547
62	0xbc6a7080	-0.014309049
63	0xbd3b5f3f	-0.04574513
64	0xbcee0f37	-0.02905999
65	0x3c22e64c	0.009942602
66	0xbd1701d1	-0.036866967
67	0xbd48b797	-0.04900321
68	0xbc9198ce	-0.017773058
69	0x3c89bf49	0.016814845
70	0x3b789f7e	0.0037936862
71	0xbbf914b0	-0.007601343
72	0xbd7349d7	-0.05939659
73	0xbd108fb6	-0.035293303
74	0xbc77a364	-0.015114639
75	0xbd0c9cab	-0.034329098
76	0xbc71f714	-0.014768381
77	0xbccd273b	-0.02504312
78	0x3c68cd78	0.014209144
79	0xbbde03fd	-0.006775378
80	0xbcdb8b45	-0.026799807
81	0x3c45f3e1	0.012082071
82	0x3ce56949	0.028004305
83	0x3cbbf027	0.022941662
84	0x3c1ce392	0.009575741
85	0xbd3939c7	-0.045221116
86	0xbd09f0f6	-0.033677064
87	0x3d1efd5b	0.038815837
88	0x3c560da9	0.01306478
89	0x3b7e0e1d	0.0038765736
90	0x3b8bf74d	0.004271424
91	0x3c92dc1d	0.017927224
92	0x3ca54e0f	0.020178823
93	0xbd48c1a0	-0.04901278
94	0xbd30fe86	-0.043211482
95	0xbd0a050a	-0.033696212
96	0xbd6ba313	-0.057528567
97	0xbcb7b2a6	-0.022424053
98	0xbc3b2a76	-0.011423698
99	0xbbbe3e49	-0.005805765
100	0xbc8857f1	-0.016643496
101	0xbcad6d2d	-0.021170223
102	0xbc9880f3	-0.018616175
103	0xbc64c7b6	-0.01396363
104	0xbd98a426	-0.07453184
105	0xbc282edd	-0.010265079
106	0x3c57d24c	0.013172697
107	0x3d1462d4	0.036227062
108	0x3c33c0c0	0.010971248
109	0x3d524a08	0.051340133
110	0x3c8f999a	0.017529298
111	0x3d104c5b	0.03522907
112	0x3c2c9c6e	0.010535343
113	0x3c8a0861	0.016849698
114	0xbd53e5db	-0.05173288
115	0x3c2261a7	0.009910977
116	0xbaa830c0	-0.0012831911
117	0xbbe45b1f	-0.0069688703
118	0xbd2a58ac	-0.04158847
119	0xbd369874	-0.044578984
120	0x3cbbe534	0.022936441
121	0x3d586d7c	0.052838787
122	0x3c43bc82	0.011946799
123	0x3c5514b1	0.0130054215
124	0x3d664176	0.056214772
125	0x3d47a6b5	0.04874297
126	0xbd3056cb	-0.043051522
127	0x3cac5c2d	0.021040047
128	0x3d0453b4	0.032306388
129	0x3bd526c9	0.0065048677
130	0x3cab730c	0.020928882
131	0xb9411671	-0.00018414274
132	0x3d0aa253	0.03384621
133	0xbc88025a	-0.016602684
134	0xbd720c1c	-0.05909358
135	0x3bc3a8cc	0.00597105
136	0x3cb6189b	0.02222853
137	0x3cdcde32	0.02696142
138	0xbcdc1ea1	-0.026870074
139	0xbce35691	-0.027751239
140	0x3b4bddce	0.0031107548
141	0x3d361a10	0.04445845
142	0xbcba707c	-0.022758715
143	0x3cc1718e	0.023613717
144	0x3bbcd1be	0.005762308
145	0xbca9d9f4	-0.020733811
146	0xbc9922f6	-0.018693428
147	0x3c96a362	0.018388454
148	0xbba5142c	-0.005037805
149	0xbc6d10a6	-0.014469301
150	0x3d585561	0.0528158
151	0x3d1b1c31	0.037868682
152	0x3d14a2ba	0.036288
153	0xbd175935	-0.03695031
154	0xbdbe6200	-0.09296036
155	0xbd4af4d1	-0.04954988
156	0x3d1ad487	0.037800338
157	0xbc6715aa	-0.014104286
158	0xbc045786	-0.008077508
159	0x3cf475ce	0.02984133
160	0x3cf10003	0.02941895
161	0x3c2ea75d	0.01066002
162	0xbcd4b64e	-0.025965836
163	0xb9aee33a	-0.00033357163
164	0x3c6cd758	0.014455639
165	0xbc835f9d	-0.016036803
166	0xbce9b183	-0.028527027
167	0xbcc23992	-0.023709092
168	0xbd00b03f	-0.03141808
169	0xba45f04d	-0.0007550761
170	0xbc805457	-0.015665216
171	0x3c3d013f	0.011535942
172	0x3a0b6ebf	0.00053189317
173	0x3bce25d4	0.0062911306
174	0x3c2286d9	0.0099198455
175	0x3b98636e	0.004650525
176	0x3d507cd9	0.050900314
177	0xbcd0c4a6	-0.025484394
178	0xbd7d1094	-0.06178339
179	0xbd27aa9a	-0.040934183
180	0x3c262df0	0.010142788
181	0x3cdf383b	0.027248492
182	0x3cd38834	0.025821783
183	0x3cbb88ec	0.022892438
184	0xbcdb7f9f	-0.026794253
185	0x3bf7c964	0.0075618494
186	0x3b252d28	0.0025203917
187	0x3c537eb6	0.012908628
188	0x3d07dbd6	0.033168636
189	0x39950c32	0.0002842858
190	0x3ca27284	0.019829996
191	0x3b36d4d1	0.0027897845
192	0x3cf57325	0.029962132
193	0x3c41759b	0.0118078245
194	0x3d3535f1	0.044240896
195	0x3c2d594d	0.010580373
196	0xb936b00a	-0.00017422452
197	0xbd0d4e9d	-0.0344988
198	0xbd5168af	-0.051125225
199	0x395df1aa	0.00021166229
200	0xbd6df609	-0.058095966
201	0x3c56412d	0.013077063
202	0xbb7c9cb4	-0.003854555
203	0x3c86458a	0.01639058
204	0x3cbbd9c8	0.022930995
205	0x3d234365	0.039859194
206	0x3b858536	0.004074718
207	0xbd1ae7fd	-0.037818898
208	0xbd1878df	-0.037224647
209	0xbd009ac0	-0.03139758
210	0xbcbbe9fe	-0.022938725
211	0x3cdf11af	0.027230112
212	0x3bdbb1dd	0.0067045526
213	0x3c24e408	0.0100641325
214	0xbcdaa14c	-0.02668824
215	0xbd19c6c6	-0.03754308
216	0x3c8faec5	0.017539391
217	0x3d3d395f	0.04619729
218	0x3cb3a2ec	0.021928273
219	0x3a577b47	0.0008219969
220	0x3cf84d6d	0.030310357
221	0x3bbeba93	0.005820581
222	0xbb4aa649	-0.0030921868
223	0xbcc2f1cf	-0.023796944
224	0xbca962d0	-0.020677
225	0xbc0a692c	-0.0084479265
226	0x3bed8e1e	0.0072496077
227	0x3cfd0ef4	0.03089092
228	0x3b83b653	0.0040195375
229	0xbc481c12	-0.012213724
230	0x3c01008a	0.007873664
231	0x3cc97f57	0.024596853
232	0x3d81390b	0.06309708
233	0x3d1b56fe	0.03792476
234	0xbdd3afe2	-0.10336281
235	0xbdd776c9	-0.10520703
236	0xbcbf2196	-0.023331445
237	0xbdf62aed	-0.12019906
238	0xbdaf1194	-0.08548275
239	0xbd44c669	-0.04804078
240	0xbd8db5df	-0.06919455
241	0xbd6829af	-0.056680378
242	0xbde08ec1	-0.10964728
243	0xbc75f38f	-0.015011682
244	0x3b015b8d	0.0019738406
245	0x3bbcd9f2	0.005763286
246	0x3cf3d146	0.029762875
247	0x3c77863d	0.0151076885
248	0x3d3b3abb	0.045710307
249	0xb885483f	-6.355391e-05
250	0xbb5196bf	-0.003198072
251	0xbbce1f37	-0.006290342
252	0x3d07e198	0.033174127
253	0xbc52225b	-0.012825574
254	0x3c25c14d	0.010116887
255	0xbd8d21e5	-0.068912305

module.blocks.0.block.2.weight f4 [64]
0	0x3f68aab2	0.9088546
1	0x3f57d22c	0.8430507
2	0x3f59f693	0.8514187
3	0x3f62b6ef	0.88560385
4	0x3f5864b0	0.84528637
5	0x3f5c9ded	0.86178476
6	0x3f6863d7	0.90777344
7	0x3f6e48c0	0.9307976
8	0x3f617d89	0.88082176
9	0x3f5e613c	0.8686712
10	0x3f5d5f13	0.86473197
11	0x3f429444	0.76007485
12	0x3f53c1b9	0.8271747
13	0x3f6362b7	0.888225
14	0x3f537db7	0.826137
15	0x3f5869b5	0.84536296
16	0x3f67351e	0.90315425
17	0x3f5c2bb9	0.86004215
18	0x3f561edf	0.83640856
19	0x3f5ce8a1	0.86292464
20	0x3f676f01	0.90403754
21	0x3f51c926	0.81947553
22	0x3f567c8d	0.837838
23	0x3f6d5a3d	0.9271582
24	0x3f645a9d	0.89200765
25	0x3f5c7078	0.86109114
26	0x3f64fe2c	0.89450336
27	0x3f6184b7	0.8809313
28	0x3f5377ec	0.8260486
29	0x3f3e5421	0.7434712
30	0x3f67db70	0.9056921
31	0x3f5fe520	0.8745899
32	0x3f4fbcb6	0.81147325
33	0x3f665d9e	0.899866
34	0x3f45940b	0.7717902
35	0x3f400be8	0.7501817
36	0x3f505591	0.81380564
37	0x3f6364ac	0.8882549
38	0x3f70a489	0.9400106
39	0x3f55ed72	0.8356544
40	0x3f5670da	0.8376595
41	0x3f470a53	0.7775013
42	0x3f5dfe6f	0.8671636
43	0x3f5e592e	0.8685483
44	0x3f5704de	0.839918
45	0x3f5a7f34	0.85350347
46	0x3f5e692c	0.8687923
47	0x3f530d3c	0.8244207
48	0x3f609e47	0.8774151
49	0x3f572a0a	0.8404852
50	0x3f622787	0.88341564
51	0x3f5cf93c	0.863178
52	0x3f54d514	0.8313763
53	0x3f4ce08b	0.80030125
54	0x3f519a03	0.8187563
55	0x3f689be5	0.90862876
56	0x3f5be2b2	0.85892785
57	0x3f613d3b	0.87984055
58	0x3f5e6a89	0.8688131
59	0x3f6881c0	0.9082298
60	0x3f63021b	0.8867509
61	0x3f5691c6	0.8381618
62	0x3f45dc08	0.77288866
63	0x3f504e71	0.8136969

module.blocks.0.block.2.bias f4 [64]
0	0xbf23c8d3	-0.6397831
1	0xbf82b29e	-1.021076
2	0xbee80c3a	-0.45321828
3	0xbf62d512	-0.8860637
4	0xbf064a0a	-0.52456725
5	0xbd53b4dc	-0.051686153
6	0xbf20280d	-0.6256111
7	0xbf26849b	-0.6504609
8	0xbb40076c	-0.0029301299
9	0xbdb7f291	-0.08981813
10	0xbd1896d3	-0.037253212
11	0xbf4326bc	-0.7623098
12	0xbdfd6e2a	-0.12374528
13	0xbec483d7	-0.38381836
14	0xbe17967a	-0.14803496
15	0xbe0cd1b4	-0.1375187
16	0xbd9dbd7a	-0.077021554
17	0xbe646107	-0.22302638
18	0xbf516410	-0.8179331
19	0xbf61876f	-0.8809728
20	0xbdddf4e5	-0.108377255
21	0xbf884436	-1.0645816
22	0xbeb7accb	-0.35874018
23	0xbe14c2cd	-0.14527436
24	0xbdcabbe7	-0.09899121
25	0xbe40f1f5	-0.188423
26	0xbe7e92bc	-0.24860662
27	0xbf1b5bdd	-0.6068705
28	0xbe1d9631	-0.15389325
29	0xbf2a90f2	-0.6662742
30	0xbe67f7cd	-0.22653122
31	0xbe306a22	-0.17227986
32	0xbe0b32db	-0.13593619
33	0xbe0ed552	-0.13948563
34	0xbe0f5e32	-0.14000776
35	0xbf62d922	-0.8861257
36	0xbfa6136e	-1.297468
37	0xbd83b852	-0.06431641
38	0xbc7ac34c	-0.0153053515
39	0xbf4af2f2	-0.79276955
40	0x3b84138b	0.00403065
41	0xbf4414da	-0.76594317
42	0xbe806427	-0.2507641
43	0xbe86934e	-0.2628426
44	0xbd1a9de0	-0.037748218
45	0xbe2d5c11	-0.16929652
46	0xbf1ab09f	-0.6042575
47	0x3e049d14	0.12950546
48	0xbefda8c7	-0.4954283
49	0xbdc57a02	-0.09642412
50	0xbcbd0645	-0.023074279
51	0xbf8816aa	-1.0631917
52	0xbf174d51	-0.5910235
53	0xbdcf72f8	-0.101293504
54	0xbec6e2e8	-0.3884499
55	0xbd0127e8	-0.0315322
56	0xbe39cff3	-0.18145733
57	0x3cb0340b	0.021509191
58	0xbdccd298	-0.10001105
59	0xbd59dde1	-0.053190116
60	0xbe2e232d	-0.17005606
61	0xbe10185b	-0.14071791
62	0xbf83d4a0	-1.0299263
63	0xbda70a91	-0.08156312

module.blocks.0.block.2.running_mean f4 [64]
0	0x3d302bdf	0.04301059
1	0x3d7c3f69	0.06158391
2	0x3c90f106	0.017693054
3	0x3d208833	0.03919239
4	0x3c8f7f3a	0.017516721
5	0x3d152e8a	0.036421336
6	0x3ca4f36e	0.020135608
7	0x3c31a1b7	0.0108417785
8	0x3d072bf2	0.033000894
9	0xbb980b1f	-0.0046399976
10	0xbc45fda4	-0.012084398
11	0x3cb4c2b3	0.022065496
12	0xbce478db	-0.02788966
13	0x3cc8d865	0.024517247
14	0xba9eefe5	-0.0012125938
15	0x3c120212	0.008911626
16	0xbcaff64e	-0.021479752
17	0x3c09fd3f	0.008422195
18	0x3d74344b	0.059620183
19	0x3d82ce6c	0.06387028
20	0xb77e5a87	-1.5160657e-05
21	0x3d9d7c4a	0.07689722
22	0x3c86c630	0.016451925
23	0x3c10bcd3	0.008834082
24	0xbb2e2313	-0.0026571199
25	0x3ca686db	0.020327976
26	0x3c2a352b	0.010388653
27	0x3c0a2ce6	0.008433556
28	0xbb96d7f3	-0.00460338
29	0x3d1ff333	0.039050292
30	0xbc77623a	-0.015099103
31	0x3cbf49fc	0.023350708
32	0x3b3bcb16	0.0028654984
33	0x3bc99113	0.0061513274
34	0x3c55fa93	0.01306023
35	0x3d329ada	0.04360471
36	0x3d6ec5ab	0.05829398
37	0x3c2fe466	0.010735607
38	0xbcd19a88	-0.025586382
39	0x3d44676f	0.047950204
40	0x3ca1c945	0.019749293
41	0x3d3b09b9	0.04566357
42	0x3c91ff62	0.017821971
43	0x3c187a18	0.009306453
44	0x3b2b0437	0.0026095042
45	0x399075f9	0.00027553717
46	0x3bfb69d3	0.0076725273
47	0xbcf0fd86	-0.029417764
48	0x3cd9c1d0	0.026581675
49	0x3bb7feb0	0.005615078
50	0xbc2ec1c5	-0.010666315
51	0x3d677c59	0.05651507
52	0x3cd53e01	0.026030542
53	0x3c438034	0.0119324215
54	0x3c6e68f3	0.014551389
55	0xbcc2c380	-0.023774862
56	0x3b45420b	0.003009918
57	0xbcbba293	-0.02290467
58	0xbca5c65d	-0.020236189
59	0x3ca671c7	0.020317925
60	0x3cf47801	0.029842379
61	0x3c8ace08	0.016943946
62	0x3d7eb7fb	0.062187176
63	0x3b697e03	0.0035628087

module.blocks.0.block.2.running_var f4 [64]
0	0x3f2c6f7c	0.6735761
1	0x3fa028ec	1.2512488
2	0x3ebc83b6	0.36819237
3	0x3f64d956	0.8939413
4	0x3ec3817e	0.38184732
5	0x3f087df9	0.5331722
6	0x3edc79c3	0.43061647
7	0x3ee81c08	0.45333886
8	0x3f1fcfc7	0.6242642
9	0x3df3cbf4	0.11904135
10	0x3eafe3fe	0.34353632
11	0x3eb0a3b0	0.34499884
12	0x3ea7b61e	0.32756132
13	0x3e88714d	0.26648942
14	0x3dfe6314	0.124212414
15	0x3ebf2791	0.37334874
16	0x3ee2dbae	0.44308227
17	0x3e845384	0.25844967
18	0x3fc1d7fc	1.5144038
19	0x3fc66fe5	1.5502898
20	0x3eaf8d8b	0.34287676
21	0x3fedc236	1.8574893
22	0x3e52be24	0.20580345
23	0x3e4d1807	0.20028697
24	0x3e394a44	0.18094736
25	0x3e783bd1	0.24241568
26	0x3ebce447	0.36892912
27	0x3ec37ff0	0.38183546
28	0x3e65866e	0.22414562
29	0x3f378e01	0.71701056
30	0x3e53c3c2	0.20680144
31	0x3e930baa	0.28719836
32	0x3dfdb250	0.12387526
33	0x3e0e533f	0.13898943
34	0x3e89494c	0.26813734
35	0x3f4ac9bf	0.7921409
36	0x40069d2d	2.1033432
37	0x3ea90407	0.33010885
38	0x3ead25fc	0.33818042
39	0x3f90c921	1.131138
40	0x3ef6b252	0.48182923
41	0x3f4fdbde	0.81194866
42	0x3ec9e3a5	0.39431491
43	0x3e4711b4	0.19440347
44	0x3e2b3b6e	0.1672189
45	0x3e427093	0.18988256
46	0x3eadee60	0.33970928
47	0x3e972dbb	0.29527077
48	0x3edb0336	0.42775887
49	0x3e233a39	0.15940179
50	0x3e25c90b	0.16189973
51	0x400018d3	2.0015152
52	0x3e982b70	0.2972064
53	0x3df0f37c	0.11765191
54	0x3ed53953	0.41645297
55	0x3ea5e702	0.32402807
56	0x3e903899	0.2816818
57	0x3f21888d	0.63098985
58	0x3e2c50a1	0.16827632
59	0x3f234fc0	0.63793564
60	0x3eb0888e	0.34479183
61	0x3e9ed42c	0.3102125
62	0x3ff795d9	1.9342605
63	0x3e500d98	0.20317686

module.blocks.1.block.1.weight f4 [64, 64, 3]
0	0xbd7f064f	-0.062261876
1	0x3c8c4124	0.017120905
2	0xbc495a97	-0.012289665
3	0xbd8f9ad8	-0.07011956
4	0xbd0a3dc0	-0.033750296
5	0xbc68874a	-0.014192412
6	0xbb21d821	-0.0024695473
7	0x3cea3031	0.028587433
8	0x3d172756	0.036902748
9	0x3d5cd5e7	0.05391493
10	0x3d9ceff9	0.07662959
11	0x3d51d199	0.05122528
12	0xbcac8920	-0.02106148
13	0x3c375838	0.011190467
14	0xba91d18f	-0.0011125075
15	0xbcee07ba	-0.029056419
16	0xbc660cf9	-0.014041179
17	0xbd36e77e	-0.044654362
18	0xbcf97817	-0.030452771
19	0xbd961389	-0.07327945
20	0xbd5f0d50	-0.054456055
21	0x3b96e1e2	0.004604564
22	0xbc82d48c	-0.01597049
23	0xbc21a948	-0.00986702
24	0xbc30dd6c	-0.010794979
25	0xbcc2a760	-0.023761451
26	0xbb82a8f0	-0.003987424
27	0xbb995af1	-0.0046800305
28	0xbc9e3962	-0.019314472
29	0x3ba85b3b	0.0051378286
30	0x3adaab60	0.0016683154
31	0xbd02cb3c	-0.0319321
32	0xbd36f344	-0.04466559
33	0xbd36c67e	-0.04462289
34	0xbc931ef4	-0.017959096
35	0xbc24ea99	-0.010065698
36	0xbc8b4362	-0.016999904
37	0xbce0361c	-0.027369551
38	0xbcbef7d4	-0.023311533
39	0xbccd94bf	-0.025095342
40	0xbd0534ba	-0.032520987
41	0xbcc6510c	-0.024208568
42	0xbcc0d2d1	-0.023538025
43	0xba92f19a	-0.0011210919
44	0xba044538	-0.0005045715
45	0xba02b078	-0.00049854023
46	0x3b37e15b	0.0028057906
47	0xbc582a28	-0.013193645
48	0xbd7bea29	-0.06150261
49	0xbd033e4a	-0.032041825
50	0xbbcb1de6	-0.0061986325
51	0x3c26709c	0.010158684
52	0x3c144f5a	0.009052122
53	0x3c0d074d	0.008607698
54	0x3c0f66c5	0.0087525295
55	0x3d724531	0.059148017
56	0x3d164d04	0.03669454
57	0x3c7dc8fa	0.015489811
58	0x3dc8ce71	0.098050006
59	0x3d4c2ccf	0.04984742
60	0xbc10523d	-0.00880867
61	0x3cb505aa	0.022097427
62	0xbc75d794	-0.015005011
63	0xbcbf4844	-0.023349889
64	0xbce23c93	-0.027616775
65	0x3a213be9	0.000615059
66	0xbc10520d	-0.008808625
67	0x3a26b913	0.00063599757
68	0x3d24dbb6	0.040248595
69	0x3b9d4ffc	0.0048007946
70	0x3bdcddb5	0.0067402967
71	0x3c606705	0.013696437
72	0xbc334ef8	-0.010944121
73	0xbc54fc30	-0.012999579
74	0xbc8f7172	-0.01751015
75	0xbd0de849	-0.034645353
76	0xbc953321	-0.018212857
77	0xbd1de293	-0.038546156
78	0x3d1b2ff5	0.037887532
79	0xbc233795	-0.009961982
80	0x3cee4851	0.029087218
81	0xbd092c7f	-0.0334897
82	0xbc9f1edb	-0.019423893
83	0xbcb67b50	-0.022275597
84	0xbbffd3e5	-0.007807242
85	0x3cff5090	0.031166345
86	0xbc82270f	-0.015887765
87	0xbd389904	-0.045067802
88	0xbbf715c0	-0.0075404346
89	0x3c7f6dba	0.015590126
90	0xbbdcafc8	-0.006734822
91	0xbcfbf7e4	-0.030757852
92	0xbd0df138	-0.034653872
93	0xbc32567d	-0.010884878
94	0xbd53eec1	-0.051741365
95	0xbbcc4eb1	-0.0062349667
96	0xbc96dc2d	-0.018415535
97	0xbc749018	-0.014926933
98	0xbbc93f0c	-0.006141549
99	0x3c5f1ceb	0.013617734
100	0x3c0be571	0.00853859
101	0x3bc3aee8	0.005971778
102	0xbd45290e	-0.048134856
103	0xbd299de9	-0.04141036
104	0xbd138223	-0.03601278
105	0xbd3ab03e	-0.045578234
106	0xba34ead8	-0.00069014495
107	0x3b8fa548	0.0043837167
108	0xbda6057f	-0.08106517
109	0xbd552e38	-0.05204603
110	0xbd2b6c1c	-0.041851148
111	0x3c442ead	0.011974019
112	0x3c4627e5	0.012094473
113	0xb9cb3226	-0.0003875654
114	0xbc7db0df	-0.015484064
115	0xbd0f8a39	-0.03504393
116	0xbd13d775	-0.036094148
117	0x3d792633	0.060827445
118	0x3d52024b	0.051271718
119	0x3d6207db	0.055183273
120	0xb9dca6e9	-0.00042086028
121	0xbb0b2cc0	-0.002123639
122	0xbbbaa1d6	-0.005695562
123	0x3d10af51	0.035323445
124	0x3d235446	0.03987529
125	0x3ce9b148	0.028526917
126	0x3d00900b	0.03138737
127	0x3cbc4890	0.02298382
128	0x3d32736e	0.043567114
129	0x3b37a395	0.0028021086
130	0xbc9b2850	-0.018940121
131	0xbc00cf35	-0.007861902
132	0xbcf63069	-0.03005238
133	0xbd01f32a	-0.03172604
134	0xbc88d11b	-0.016701272
135	0xbd13ffb9	-0.036132548
136	0x3ac19f3c	0.0014772187
137	0x3acd384b	0.0015657035
138	0x3caf1e95	0.021376887
139	0x3bcc280a	0.006230359
140	0xbca4198b	-0.020031711
141	0xbcff7df0	-0.031187981
142	0xbd3d5322	-0.04622186
143	0xbcfc9c37	-0.030836208
144	0x3bff177d	0.0077847824
145	0xbcb958c4	-0.022625335
146	0x3ce033eb	0.027368506
147	0xbb90e37b	-0.004421649
148	0x3a171b10	0.00057642255
149	0x3b0d2335	0.0021535878
150	0xbd4d8f61	-0.050185565
151	0x3b533ba3	0.0032231591
152	0xbc8f2bca	-0.017476935
153	0x3bc65fb1	0.006053888
154	0x3c9cb678	0.019129977
155	0x3d30082a	0.042976536
156	0xbd28fdad	-0.04125755
157	0xbc1e0c96	-0.009646555
158	0xbcab9ae0	-0.020947874
159	0xbd2549a6	-0.04035344
160	0xbcc050a2	-0.023475949
161	0xbd146a6f	-0.036234315
162	0x3c6fae8c	0.014629018
163	0x3b465f5a	0.0030269236
164	0x3cedcc16	0.02902798
165	0xbcde497e	-0.027134653
166	0xbc8348be	-0.016025897
167	0xbcfb64cd	-0.030687714
168	0xbc88c01a	-0.016693164
169	0x3c08aa96	0.008341452
170	0xbcbc5bc2	-0.022992972
171	0xbd1c9658	-0.038229316
172	0xbd4a4b20	-0.04938805
173	0xbd2f344b	-0.04277448
174	0xbd2e8748	-0.042609483
175	0xbc795a50	-0.015219286
176	0xbd153293	-0.036425184
177	0xbcda750a	-0.026667137
178	0x3cffaebe	0.031211253
179	0x3d015f04	0.031584755
180	0x3b369b15	0.0027863432
181	0xbcb0d76a	-0.021587092
182	0xbd3b210d	-0.045685817
183	0xbc352e28	-0.011058368
184	0xbb88d731	-0.0041760434
185	0x3c07339f	0.0082520535
186	0x3bcba726	0.006214994
187	0x3b50f52c	0.0031884415
188	0x3c94a039	0.018142806
189	0x3c1c11b5	0.009525706
190	0x3c5e5f70	0.013572559
191	0x3c41f562	0.011838289
192	0xbd0ae8cc	-0.03391342
193	0xbd47f17e	-0.04881429
194	0xbd761ecd	-0.060087968
195	0xbd099269	-0.033586893
196	0xbca54fa8	-0.020179585
197	0xbd20cbf9	-0.039257023
198	0x3c853b44	0.016263612
199	0xbc5c10c8	-0.013431735
200	0xbb61868d	-0.0034412474
201	0xbd12a1e5	-0.035798926
202	0xbdbfd32c	-0.0936645
203	0xbda467d7	-0.080276184
204	0x3d203255	0.0391105
205	0x3d0ccaba	0.034373023
206	0xbb452701	-0.0030083063
207	0xbc9d9d79	-0.019240128
208	0xbcef3ead	-0.02920469
209	0xbcc6077e	-0.024173494
210	0xbc11d316	-0.008900424
211	0xbd4340bf	-0.04766917
212	0xbd910a06	-0.0708199
213	0xbd0e0613	-0.03467376
214	0xbc811ac6	-0.015759837
215	0xbc4af59e	-0.012387661
216	0xbcb592ea	-0.02216478
217	0xbd1e551e	-0.038655393
218	0xbd8bd79d	-0.06828234
219	0x3cc26247	0.023728503
220	0x3cd85385	0.026407013
221	0xbbf197a3	-0.007372813
222	0x3b9c193b	0.00476375
223	0x3c0a4e1f	0.008441477
224	0x3b10ada5	0.0022076156
225	0xbc46f189	-0.012142547
226	0xbbe9f6f1	-0.0071400334
227	0xbba45cb4	-0.005015934
228	0x3c95f11d	0.018303448
229	0xbc78997d	-0.015173313
230	0xbc512bc9	-0.012766787
231	0xbc4f3306	-0.012646442
232	0xbd5d8311	-0.054080073
233	0xbd196033	-0.03744526
234	0x3c36c839	0.011156135
235	0x3c66dcf0	0.014090762
236	0xbc2867af	-0.010278626
237	0xb9c275da	-0.0003709037
238	0x37988fe2	1.8186813e-05
239	0x3ce15969	0.027508454
240	0x3c83f45d	0.016107732
241	0xbc03b134	-0.008037854
242	0xbcd3e6be	-0.025866862
243	0xbc4a1a63	-0.012335393
244	0x3c1ec16d	0.009689671
245	0x3cd6ee00	0.026236534
246	0xbd5f9131	-0.054581825
247	0xbd4ae7e3	-0.04953755
248	0xbd3b2e07	-0.045698192
249	0xbda81c49	-0.0820852
250	0xbd313c89	-0.04327062
251	0xbd6a3dd2	-0.057187863
252	0xbc94e5a1	-0.018175902
253	0x3ca22df5	0.019797305
254	0xbbb5f48e	-0.005552835
255	0xbcce5578	-0.025187239

module.blocks.1.block.2.weight f4 [64]
0	0x3f6f929b	0.9358308
1	0x3f6844c0	0.90729904
2	0x3f6567ec	0.896117
3	0x3f4a6b08	0.79069567
4	0x3f6f993d	0.935932
5	0x3f4dc63c	0.80380607
6	0x3f6f0d6c	0.93379855
7	0x3f68d234	0.90945745
8	0x3f61baef	0.88175863
9	0x3f6f7394	0.93535733
10	0x3f53fdcd	0.82809144
11	0x3f6bbf3d	0.9208868
12	0x3f54d8ca	0.83143294
13	0x3f665cc1	0.8998528
14	0x3f52a6d8	0.82285833
15	0x3f4b1206	0.79324377
16	0x3f689844	0.9085734
17	0x3f54bbcd	0.8309906
18	0x3f6bf14c	0.92165065
19	0x3f6d1bf3	0.9262077
20	0x3f6ab164	0.91676927
21	0x3f5b91dd	0.85769445
22	0x3f617b5d	0.8807886
23	0x3f63ce66	0.88986814
24	0x3f699454	0.91241956
25	0x3f6d0b47	0.9259533
26	0x3f7c4531	0.9854308
27	0x3f700d0c	0.9376991
28	0x3f749bcb	0.9555022
29	0x3f6f8e10	0.93576145
30	0x3f6a3f6a	0.9150301
31	0x3f567251	0.83768183
32	0x3f5fd863	0.87439555
33	0x3f641bcd	0.8910492
34	0x3f799e50	0.9750719
35	0x3f680668	0.90634775
36	0x3f6b698d	0.9195793
37	0x3f857af1	1.0428144
38	0x3f6e4950	0.93080616
39	0x3f6c8bb3	0.92400664
40	0x3f61f079	0.8825756
41	0x3f65fc71	0.8983832
42	0x3f778a94	0.9669583
43	0x3f7bd391	0.983697
44	0x3f5ecde8	0.8703294
45	0x3f57fd45	0.84370834
46	0x3f656c03	0.8961794
47	0x3f775612	0.9661571
48	0x3f6d1452	0.9260913
49	0x3f63fc51	0.8905688
50	0x3f76b306	0.9636692
51	0x3f624118	0.88380575
52	0x3f67f625	0.9060996
53	0x3f6363cd	0.8882416
54	0x3f6d18f0	0.92616177
55	0x3f67a2b1	0.9048262
56	0x3f7bb75f	0.9832668
57	0x3f7619eb	0.961333
58	0x3f6f7ecd	0.9355286
59	0x3f608889	0.87708336
60	0x3f526906	0.82191503
61	0x3f5792d0	0.84208393
62	0x3f558e14	0.8341992
63	0x3f5e0663	0.86728495

module.blocks.1.block.2.bias f4 [64]
0	0x3b932f4b	0.0044917217
1	0x3e8666e8	0.26250386
2	0xbfb38fdf	-1.4028281
3	0xbf3b404b	-0.7314498
4	0xbece6ca0	-0.4031725
5	0xbfa8fa4a	-1.3201382
6	0xbe9503b9	-0.29104403
7	0xbdd97d04	-0.10619548
8	0x3e05aec9	0.13054956
9	0xbeeafb44	-0.45894825
10	0xbf5e9bd2	-0.8695651
11	0xbdb6548e	-0.08902846
12	0xbeca190b	-0.3947223
13	0xbf179a55	-0.59219867
14	0x3ee57213	0.44813594
15	0xbf90594e	-1.1277254
16	0xbcd96505	-0.026537428
17	0xbf3b1ddd	-0.7309244
18	0xbf0f2e79	-0.55930287
19	0xbe480cb5	-0.19536097
20	0xbf2876a7	-0.6580605
21	0xbf292090	-0.6606531
22	0xbf227862	-0.6346494
23	0xbf0a0023	-0.5390646
24	0xbea2048f	-0.31644103
25	0xbef25a1e	-0.4733438
26	0xbe3872b5	-0.18012507
27	0xbf04e19b	-0.51906747
28	0x3eab2e38	0.334337
29	0xbe0c9dea	-0.13732114
30	0x3d83a5d5	0.06428114
31	0xbfa5ea4f	-1.296213
32	0xbec02e6b	-0.37535414
33	0xbe968dd3	-0.29405078
34	0x3e831746	0.25603694
35	0xbf498066	-0.78711545
36	0x3e756f15	0.23968156
37	0x3e982ad0	0.29720163
38	0xbf8b7858	-1.0896101
39	0x3e9dfaec	0.308555
40	0xbe9713c2	-0.29507262
41	0x3ebcca82	0.3687325
42	0xbdaf6951	-0.085650094
43	0x3de3e581	0.11127759
44	0xbee4c887	-0.4468424
45	0x3f0c74d0	0.5486574
46	0x3eaa38c0	0.33246422
47	0x3cee7e24	0.029112883
48	0x3d0be31a	0.034152128
49	0xbea78459	-0.3271816
50	0xbd91c552	-0.07117714
51	0xbee746d6	-0.4517123
52	0xbc02f1bd	-0.007992205
53	0xbf1cbe66	-0.61228025
54	0xbe1a196b	-0.15048759
55	0x3e4a773e	0.1977205
56	0xbc9c058e	-0.019045617
57	0x3e54f09f	0.20794915
58	0xbeac7834	-0.33685458
59	0x3dd55a7e	0.10417651
60	0xbf2858da	-0.65760577
61	0xbf8636bd	-1.0485455
62	0xbe053bcc	-0.13011092
63	0xbf2052dd	-0.6262644

module.blocks.1.block.2.running_mean f4 [64]
0	0xbee08713	-0.43853053
1	0xbe5a1685	-0.21297653
2	0x3e1929bd	0.14957328
3	0xbf0d7c70	-0.55268
4	0xbcb62f4f	-0.022239355
5	0x3e41efff	0.18939207
6	0xbd63a108	-0.055573493
7	0xbe352bb5	-0.17692454
8	0xbe06b347	-0.13154326
9	0x3eb92d8c	0.36167562
10	0x3e0ba3d9	0.13636722
11	0x3d3bd668	0.04585877
12	0x3e946219	0.28981093
13	0xbdbf2024	-0.09332302
14	0xbe43d7b4	-0.19125253
15	0xbdd1d831	-0.10246313
16	0x3cdbeb99	0.02684574
17	0x3d4291b9	0.047502253
18	0x3dfc950b	0.12333115
19	0x3dc34b03	0.09535792
20	0x3e3ccb96	0.18437037
21	0x3d2812b4	0.04103346
22	0xbdfa0c25	-0.12209348
23	0x3dcc8da6	0.09987955
24	0x3e6cb6d1	0.23116614
25	0x3da65add	0.081227995
26	0xbd035104	-0.032059684
27	0x3eafb889	0.34320477
28	0xbeb5c845	-0.35504356
29	0x3eb621ad	0.35572568
30	0xbea83b55	-0.32857767
31	0x3d90fa8f	0.0707904
32	0x3dd848c4	0.10560754
33	0x3e11f530	0.14253688
34	0xbefd3a4b	-0.49458537
35	0x3e1beb49	0.15226473
36	0xbd80c4a6	-0.06287508
37	0xbee183aa	-0.44045764
38	0x3e1fed43	0.15617852
39	0xbeec5d9c	-0.46165168
40	0x3e369b06	0.17832574
41	0xbee4507f	-0.44592664
42	0x3dac37fc	0.08409116
43	0xbecf9b33	-0.40548095
44	0x3bfd3847	0.007727656
45	0xbead5bb8	-0.33859038
46	0xbec16191	-0.3776975
47	0x3dbc4e70	0.09194648
48	0xbef73091	-0.4827924
49	0x3e3f8929	0.18704666
50	0x3e22d979	0.15903272
51	0xbe254d90	-0.16142869
52	0xbe49ee49	-0.19719805
53	0xbd7fdde0	-0.062467456
54	0x3f064c9f	0.52460665
55	0xbd57e3a4	-0.05270733
56	0xbdfcfc25	-0.1235278
57	0xbd76e53c	-0.06027721
58	0x3ddf7486	0.10910897
59	0xbeaeac87	-0.34116003
60	0x3dccb13a	0.09994741
61	0xbe818ccb	-0.2530273
62	0x3c88e183	0.016709095
63	0xbdd3ab7c	-0.103354424

module.blocks.1.block.2.running_var f4 [64]
0	0x3e3848e4	0.17996556
1	0x3e902a1e	0.28157133
2	0x3fb2a896	1.3957698
3	0x3e6d67f5	0.23184188
4	0x3da14b05	0.07875637
5	0x3ee68679	0.4502447
6	0x3e969a89	0.29414776
7	0x3e085640	0.13314152
8	0x3da4887c	0.08033845
9	0x3f2cf385	0.6755908
10	0x3efcdb84	0.49386227
11	0x3d8eea91	0.06978334
12	0x3e30b632	0.17257002
13	0x3d7c06b9	0.06152985
14	0x3e424c11	0.1897433
15	0x3e1608c6	0.14651784
16	0x3e59c8c9	0.21268
17	0x3f62d137	0.88600487
18	0x3e8171bc	0.25282085
19	0x3ec8b71f	0.3920221
20	0x3e1e1491	0.15437533
21	0x3dd1c886	0.10243325
22	0x3d9e8690	0.077405095
23	0x3df5cc40	0.12001848
24	0x3e86aaee	0.26302284
25	0x3e284e1c	0.16436046
26	0x3e589abc	0.21152776
27	0x3e398738	0.18117988
28	0x3e8ff594	0.2811705
29	0x3e5b447e	0.21412846
30	0x3d9e348d	0.07724867
31	0x3ec0c45e	0.37649816
32	0x3dd82fe7	0.10556012
33	0x3df926a4	0.12165573
34	0x3eca721d	0.39540187
35	0x3f9f6014	1.2451196
36	0x3e15002a	0.14550844
37	0x3ea2da2b	0.31807074
38	0x3f3e37b4	0.74303746
39	0x3e95fab4	0.29292834
40	0x3dcf9948	0.10136658
41	0x3e8e9961	0.27851394
42	0x3da2f41e	0.07956718
43	0x3e561168	0.20905077
44	0x3d4a618b	0.04940943
45	0x3e9285b2	0.28617626
46	0x3e928d6d	0.28623524
47	0x3e492ac4	0.1964522
48	0x3e1c3bdd	0.15257211
49	0x3e9120c5	0.28345314
50	0x3e27bdfc	0.16381067
51	0x3ef6ae11	0.48179677
52	0x3e87af72	0.26501042
53	0x3e68ab4e	0.22721598
54	0x3e85819e	0.26075453
55	0x3e70c6a5	0.23513277
56	0x3e4252c1	0.1897688
57	0x3e31e301	0.17371751
58	0x3e2fd05b	0.17169325
59	0x3e1ceeed	0.15325518
60	0x3f3526e0	0.70762444
61	0x3f585396	0.8450254
62	0x3de4a84c	0.111649126
63	0x3d8f86a3	0.07008102

module.blocks.2.block.1.weight f4 [64, 64, 3]
0	0xbaa54613	-0.0012609385
1	0x3bfee46a	0.007778694
2	0xbb8f724e	-0.00437764
3	0xbc90aa13	-0.017659223
4	0x3ca74baa	0.020421822
5	0xbb2b4974	-0.002613631
6	0x3c24dbd5	0.010062178
7	0xbd73586a	-0.05941049
8	0x3c133864	0.008985613
9	0x38f08f0c	0.00011470736
10	0xbc0cdf53	-0.0085981665
11	0xbc8baa52	-0.017048988
12	0x3cde4e06	0.027136814
13	0x3cc6232e	0.024186697
14	0x3aef65b8	0.0018264567
15	0x3cfec84d	0.03110137
16	0x3d6e2944	0.058144823
17	0x3cf69774	0.030101515
18	0xbd0d3298	-0.034472078
19	0xbc73ac5a	-0.014872635
20	0xbd1f254b	-0.038853925
21	0xbbe44558	-0.006966274
22	0xbc3721b2	-0.011177467
23	0xbc30a7a8	-0.01078216
24	0x3c31e4c1	0.010857762
25	0xbb7f3180	-0.0038939416
26	0x390a45c1	0.00013186691
27	0xbd0a92bc	-0.033831343
28	0x3c1c40f2	0.009536969
29	0xbb48980a	-0.00306082
30	0xbcc5144b	-0.024057528
31	0xbd34c705	-0.044135112
32	0xbd0bf22a	-0.034166493
33	0xbb7fe662	-0.003904723
34	0x3c7db765	0.015485619
35	0xbcbb8f74	-0.022895552
36	0x3ca8b762	0.020595256
37	0xbc772451	-0.015084342
38	0xbc20fda3	-0.009826097
39	0x3cfedf83	0.031112438
40	0x3d2ff689	0.042959724
41	0x3c570bcf	0.013125374
42	0x3bdcd3dd	0.0067391233
43	0x3cdb916d	0.026802743
44	0x3d2c5bd2	0.042079754
45	0x3d24ca53	0.040232014
46	0x3d0bcb94	0.034129694
47	0x3d18ee02	0.037336357
48	0x3c6ef441	0.014584602
49	0xbca7833c	-0.02044832
50	0xbc9d5f90	-0.019210607
51	0xbcdef9e1	-0.02721876
52	0x3ca0e4e4	0.019640394
53	0xbc9388bc	-0.018009536
54	0x3cca79f3	0.024716353
55	0x3cf2b9d5	0.029629627
56	0x3d216e9e	0.039412133
57	0xbcf56068	-0.029953197
58	0x3bb5a66a	0.0055435197
59	0xbb98f111	-0.004667409
60	0x3d1227f0	0.03568262
61	0x3d34e2d1	0.04416162
62	0x3cf8801a	0.030334521
63	0x3d52c964	0.051461592
64	0x3d64d60d	0.055868197
65	0x3cc84a07	0.024449361
66	0x3d12c6ed	0.03583424
67	0x3ba77458	0.005110305
68	0x3d4efff4	0.050537065
69	0x3b5b2778	0.0033440273
70	0x3ce42e15	0.027854005
71	0x3c8cfba6	0.01720984
72	0x3ba363a5	0.004986244
73	0x3c9bda76	0.019025069
74	0xba3aa233	-0.00071195065
75	0xbd422306	-0.047396682
76	0x3bdac65e	0.0066764792
77	0xbcfb10b8	-0.03064762
78	0xbabc50f7	-0.0014367391
79	0xbc8fcbe9	-0.017553287
80	0xbd13c6e0	-0.036078334
81	0xbbc4761d	-0.0059955255
82	0x3cc42466	0.023943137
83	0xbbf4d34f	-0.007471479
84	0xbbd348a7	-0.00644787
85	0xbc458775	-0.012056221
86	0x3c469375	0.012120117
87	0xbc57aded	-0.013164026
88	0xbd14272d	-0.036170173
89	0xbae7a403	-0.0017672781
90	0xbb05dff4	-0.0020427676
91	0x3c2009f3	0.009767997
92	0x3cdf5807	0.027263654
93	0x3cfcd69d	0.030864054
94	0x3cefff2d	0.029296482
95	0x3d65000e	0.055908255
96	0x3c844c66	0.01614971
97	0x3bac7a71	0.0052636196
98	0x3b2d2654	0.002642055
99	0xbca996a8	-0.020701721
100	0xbceac061	-0.028656187
101	0x3cca9897	0.024730964
102	0xbafd45ea	-0.0019323204
103	0xbd2b2a7a	-0.041788556
104	0xbd035da1	-0.032071713
105	0xbb513a8c	-0.0031925766
106	0xbcb11ea5	-0.021621058
107	0xbc554550	-0.013017014
108	0x3c176f22	0.009242805
109	0x3cdf1591	0.027231963
110	0xbc6a8e42	-0.0143161435
111	0x3ca52f73	0.020164227
112	0x3c9a7173	0.018852925
113	0x3bedf44f	0.00726179
114	0x3c695f8e	0.014243973
115	0xbd038410	-0.032108366
116	0xbc84ca53	-0.016209757
117	0xbc801d4d	-0.015638972
118	0xbcfc983e	-0.030834313
119	0xbc033193	-0.008007425
120	0xbd1ea490	-0.038731158
121	0x3ca3f75d	0.020015413
122	0xbbf25a00	-0.0073959827
123	0x3c8e54ce	0.017374422
124	0x3d5c5c57	0.053799
125	0x3c836c35	0.016042808
126	0xbd362dc3	-0.044477236
127	0x3b835dca	0.0040089833
128	0xbd0a4cc2	-0.03376461
129	0xbc4dc0b7	-0.012558154
130	0x3cd63840	0.026149869
131	0xbb53742c	-0.0032265289
132	0x3c0975f0	0.008389935
133	0x3c253683	0.010083797
134	0x3c6c5c2a	0.0144262705
135	0x3a9769a0	0.0011551864
136	0x3d0b31a7	0.0339829
137	0x3c529f58	0.012855373
138	0x3d42bded	0.04754441
139	0x3c8c0c95	0.017095843
140	0x3d02ce12	0.031934805
141	0x3be65243	0.0070288493
142	0xbc31898f	-0.010836019
143	0xbcc59153	-0.024117148
144	0xbc6fba20	-0.014631778
145	0xbcae091d	-0.02124458
146	0x3c6cecc2	0.014460744
147	0x3d18664e	0.03720694
148	0x3c50e12d	0.012748999
149	0xbbd85ed2	-0.0066031003
150	0x3ca49900	0.020092487
151	0xbcb5739e	-0.022149857
152	0xbc259935	-0.010107328
153	0xbd1b6022	-0.037933476
154	0xbbda5131	-0.006662511
155	0xbd17547e	-0.036945812
156	0xbca6c20c	-0.0203562
157	0xbc008273	-0.0078436015
158	0xbd43b544	-0.04778029
159	0xbc744842	-0.014909806
160	0xbcda590e	-0.026653793
161	0xbcab197f	-0.02088618
162	0xbcf2d872	-0.029644225
163	0xbbfceb02	-0.007718445
164	0xbd300974	-0.042977765
165	0xbc70d214	-0.014698524
166	0x3caf219b	0.021378329
167	0xbce0dddf	-0.027449546
168	0xbc5a3c74	-0.013320077
169	0xbd40f10d	-0.047104884
170	0x3d1d836c	0.03845541
171	0x3c5982a4	0.013275776
172	0x3c4df254	0.012569983
173	0xbada3136	-0.0016646746
174	0xbbd78dd6	-0.0065781875
175	0xbd478226	-0.048708104
176	0xbd321302	-0.04347516
177	0xbcf276ef	-0.029597728
178	0x3c512a5b	0.012766446
179	0xbd1a0bfd	-0.03760909
180	0xbbcb2295	-0.006199191
181	0x3b4eca5a	0.0031553716
182	0xbc0b2b08	-0.008494146
183	0xbbc6c3f8	-0.0060658418
184	0x3c8ca168	0.017166808
185	0xbd2a8107	-0.041626956
186	0xbcf70d70	-0.030157775
187	0x3cf192a1	0.029488863
188	0xbc08093f	-0.008302986
189	0x3cb9ed94	0.022696294
190	0x3cf7d3a4	0.030252285
191	0x3c45a28b	0.012062679
192	0xbc329a08	-0.010900982
193	0x3c091649	0.00836713
194	0x3bc57e2c	0.0060270038
195	0x3d3e1cbe	0.04641413
196	0x3bcbe7f0	0.0062227175
197	0x3ca633bf	0.020288346
198	0x3ca73306	0.020410072
199	0x3c5b1d9d	0.01337376
200	0x3d60d53a	0.05489085
201	0x3c4db7a5	0.012555991
202	0x3c7045c8	0.014665075
203	0x3d1fdf7a	0.039031483
204	0xb937b710	-0.00017520436
205	0x3cb29909	0.021801488
206	0x3d14eb35	0.036357123
207	0x3d0e703c	0.034775004
208	0x3d99e216	0.075138256
209	0x3cc01b55	0.023450533
210	0x3cad7433	0.021173572
211	0x3b33196c	0.0027328385
212	0x3d0a6153	0.03378422
213	0xbb39ccc7	-0.0028350817
214	0xbc3299a1	-0.010900886
215	0x3ba54536	0.005043651
216	0x3c00573e	0.0078333
217	0x3cd372fd	0.025811667
218	0x3d45ed74	0.048322156
219	0xbb68caea	-0.0035521337
220	0x3d757550	0.05992633
221	0xb9478b56	-0.00019030026
222	0xbbd3fee6	-0.0064695952
223	0x3ce7a433	0.028276538
224	0x3a925502	0.001116425
225	0x3bdfe9af	0.006833277
226	0x3bf56573	0.0074889003
227	0xbcb51445	-0.022104392
228	0xbbe64517	-0.007027279
229	0xbd1458af	-0.036217388
230	0x3c601ef8	0.0136792585
231	0x3d21d6ac	0.039511368
232	0x398e9467	0.0002719492
233	0x3b9f57ac	0.004862746
234	0x3c95bbad	0.018277967
235	0x3c03238e	0.008004082
236	0x3d12a451	0.035801236
237	0x3d366ff4	0.04454036
238	0x3d02cccb	0.031933587
239	0x3c18c635	0.0093246
240	0x3b93adb1	0.0045067896
241	0xbbe978fe	-0.007125019
242	0xbb8aebc4	-0.0042395312
243	0x3cb41c69	0.021986203
244	0xbc20db05	-0.009817843
245	0x3cbd646f	0.02311918
246	0x3d2b4c0c	0.04182057
247	0x3c8a421d	0.016877228
248	0x3d6e519e	0.058183305
249	0x3cc9555c	0.024576835
250	0x39a3d75d	0.0003125024
251	0xbccb2a06	-0.024800312
252	0x3d22dcc2	0.039761312
253	0x3cc8eaf0	0.02452609
254	0x3d036cb8	0.032086104
255	0xbc146742	-0.009057822

module.blocks.2.block.2.weight f4 [64]
0	0x3f64176c	0.8909824
1	0x3f74f1f1	0.95681673
2	0x3f8583df	1.0430869
3	0x3f4d0f3a	0.8010136
4	0x3f6d3e7c	0.9267347
5	0x3f616901	0.8805085
6	0x3f750fea	0.9572741
7	0x3f876c2f	1.057989
8	0x3f6568c5	0.8961299
9	0x3f839fe0	1.0283165
10	0x3f63b7eb	0.8895251
11	0x3f751e76	0.95749605
12	0x3f5d5721	0.86461073
13	0x3f7ea389	0.99468285
14	0x3f6c7383	0.92363757
15	0x3f6ff671	0.93735415
16	0x3f6f7af0	0.9354696
17	0x3f7a344a	0.97736037
18	0x3f6d44a4	0.9268286
19	0x3f8369a8	1.0266619
20	0x3f6ab9e2	0.91689885
21	0x3f886215	1.0654932
22	0x3f7f948f	0.9983606
23	0x3f77d89e	0.96814907
24	0x3f776df1	0.9665213
25	0x3f60db9e	0.8783511
26	0x3f6e24d8	0.9302497
27	0x3f6859b8	0.907619
28	0x3f819da3	1.0126232
29	0x3f7a6c5e	0.97821605
30	0x3f7267d6	0.9468969
31	0x3f68c6eb	0.90928525
32	0x3f66f850	0.90222645
33	0x3f760642	0.961033
34	0x3f7b4033	0.98144835
35	0x3f64951d	0.8929003
36	0x3f752753	0.9576313
37	0x3f75cb8b	0.96013707
38	0x3f89f469	1.0777713
39	0x3f70bba0	0.94036293
40	0x3f8162b4	1.0108247
41	0x3f883e7e	1.0644071
42	0x3f61ef1c	0.88255477
43	0x3f83e2eb	1.0303625
44	0x3f68b4b1	0.90900713
45	0x3f7cca97	0.9874663
46	0x3f62ad34	0.88545537
47	0x3f655929	0.8958917
48	0x3f70d41e	0.94073665
49	0x3f59d1f8	0.8508601
50	0x3f7a8cf7	0.97871345
51	0x3f623bbe	0.8837241
52	0x3f84390a	1.0329907
53	0x3f6e719a	0.9314209
54	0x3f92bd60	1.1464043
55	0x3f719d80	0.9438095
56	0x3f73ddef	0.9526052
57	0x3f7becdf	0.9840831
58	0x3f6cf4aa	0.9256083
59	0x3f72cb0e	0.94841087
60	0x3f80b18e	1.0054185
61	0x3f6d558c	0.9270866
62	0x3f818ae6	1.0120513
63	0x3f6d92d5	0.9280217
